Implementation/Baselines/CAB/Fine-Tuning/xlmr/rev_xlmr_model_adamw0.pth (torch, 7207 bytes, 2 tensors)

linear.weight f4 [2, 768]
00000000: db2d 8abb c3aa 1b3d 139e 6a3c 3e25 50bc
00000010: 1f72 383d 40c0 2b3c 9af6 903c e0e0 c93c
00000020: 618d 983c c8de 87bc 9321 5f3c c6cd 66bc
00000030: 6485 89bc 90df 9bbc 24d0 b53c 5eb6 923c
00000040: 2840 173c 5580 b1bc d693 e73c cf70 8dbc
00000050: f94a 103d 4ebb 6e3b be2e 6fbc 5c42 e53c
00000060: db8a 413d dd87 403c f32f 44bd 2637 f9b7
00000070: c7a1 ea3c 3661 003c 8673 06bc 84d4 36bb
00000080: a03b 403d 3c4a cc3c 0c81 8dbc 651b bcbc
00000090: 6fb3 5dbc 7c00 51bd 615d 023d cb93 a7bb
000000a0: e8f2 523d 5dab 223c 23a7 80bc e565 a73c
000000b0: cc67 0abd 789e dd3c 6a23 f43c 6b67 b2bc
000000c0: 86bf 79bc 9fd4 c13b c035 213b a1d3 24bd
000000d0: cbfc 0f3d fe30 a93a 5d34 40bc fe37 653c
000000e0: 1658 1c3c 52af 263d 2825 3ebd f9de 3cbc
000000f0: 69c0 3dbb 8378 dd3c b0ca cc3a 2808 ed3c
00000100: ba13 debc b9fe c43b a421 043c 1c23 c1bb
00000110: 77c6 70bd a78e e3bc 3324 2f3c 0479 debc
00000120: 5b14 563d fe17 abbc 3264 2dbc fd5e 0abc
00000130: 4214 14bc 4c47 633c 2da6 323c 2bb4 e1bb
00000140: aeb9 47bc db26 473d 1da9 2d3d 8962 25bd
00000150: 4a2d 693c 2d94 333d 47f6 da3b 3eaa c4bc
00000160: 4c02 cdbc 543d 29bc 214b 6e3d b584 c13c
00000170: ecc2 1bbd 1dd2 5cbc 53cd da3b 9837 37bd
00000180: 0e7a 67bc d13f 183d 15e6 2ebd 913a 33bc
00000190: ec3e cdbb d9ec 2cbc 37b6 01bd 7d71 423c
000001a0: 9add b83b a15e 14bc b136 e03c 5e14 e43c
000001b0: b0b8 d73c 6161 8e3c b16c 963c 7ef7 243d
000001c0: fc1f 7c3c 9f4b 51bd 39b4 043d 0465 79bc
000001d0: 1d0f e33c 6f15 c1bb 3b55 193b bd00 163d
000001e0: 952d 3b3c 9ae8 bebc 6fdc 92bc 7ad2 3dbc
000001f0: 7ecb a0bc a735 0a3d b202 17bd 5313 c1bc
00000200: 6724 223c 3d5c 843b b6be 493d 3cd9 a0bc
00000210: c46e e4bb 1f86 a1bc 60a9 8ebc 7e4a 00bb
00000220: 50a7 dcbc d66c 663d 6113 903c 585a dd3b
00000230: d0ba 53bc a0af c03c 1d09 c1bc ebd0 093c
00000240: f57e 13bc c5c9 2a3d 0e7a c33c a1a9 0a3d
00000250: 1223 933c a676 103d 3016 b9bc 3dbc dfbb
00000260: 0cb3 d0bc f24d c1bc 98a7 133c 97d1 483d
00000270: 1ab0 54bc fb96 173d e0d7 dd3b c6d1 7e3d
00000280: 1c8c 413d c779 2bbc be37 abbc 6947 d73c
00000290: f29f fc3c e3f5 ae3b 6c4b 143d cd61 dbb9
000002a0: b746 1f3d 64f7 c9bc 8f08 db3c f64f 8fbb
000002b0: ca2e 513a cb7b 933d ee37 91bc b2a9 adbc
000002c0: 8f5b 27bc d918 323d 8548 9bbc e6fd 133d
000002d0: 6615 6fbd d45c 30bc 02a1 b5bc a846 5abc
000002e0: d818 43bd 7791 fa3a 6026 16bd 7f25 b9bb
000002f0: f2d9 bf3c d39e 0ebd a30a 42bc d84c 443c
00000300: 9a98 fb3c ed71 b2bc 1828 703b f7af 37bd
00000310: c01a cd39 6a92 3e3c 04f8 e0bb 9e2a c6bc
00000320: 8b3d 353d 8ade 8ebd 4e87 1c3c 9fce 413d
00000330: aedf 1f3d fe8e 1fbd 2566 9dbb c976 b83b
00000340: 5263 013d 7c31 293d add9 7abc 8568 20bc
00000350: 74e4 b83b 11c1 99bc 9f74 013d a967 ba3c
00000360: a022 193d 6d2a be3c 5d27 cf3c 8afa c53c
00000370: e651 e2bc 3193 1abd d1f7 c93c 5071 993c
00000380: 9583 1b3b 9a3c 403c 7fc4 ffbc e1ae 0c3d
00000390: eb52 5c3b 6287 0b3d 25ae 1a3d ab30 ca3c
000003a0: a079 ec3c a54c 243d 9a5c 30bc 5656 16bc
000003b0: c477 3c3c 48ec aa3c 584f 583c ee5c d6bc
000003c0: 3b51 96bb 2f5e 36bd 5cb7 c23b d72d 6b3c
000003d0: b8d5 413d b9dd ddbc 4324 02bd 1188 243d
000003e0: f2c6 3dbb b9fb b6bc eb50 873c 2c74 12bc
000003f0: 2ac7 963c 9300 f23b 3f38 d0bc 9788 d2bc
-0.004216892 0.038004648 0.014319914 -0.012704192 0.04503071 0.010482848 0.017695714 0.024643362
0.018622102 -0.016585723 0.013618845 -0.014087146 -0.016787238 -0.019027501 0.022193976 0.017909225
0.009231605 -0.021667639 0.028268736 -0.017265705 0.03522775 0.003642756 -0.014598547 0.027985744
0.047251564 0.011751142 -0.04789729 -2.9708794e-05 0.028641595 0.007835677 -0.008206254 -0.0027897665
0.046931863 0.024937741 -0.017273448 -0.022962281 -0.01353155 -0.051025853 0.031827334 -0.005114054
0.051501185 0.0099285515 -0.015704697 0.02043433 -0.033790395 0.027053103 0.029802043 -0.02177783
-0.015243417 0.005915239 0.0024598688 -0.040240888 0.03515319 0.0012908278 -0.011731234 0.0139904
0.009542486 0.040694542 -0.046422154 -0.01152777 -0.0028953797 0.027035004 0.001562437 0.028934553
-0.027109016 0.0060118106 0.008064661 -0.005894078 -0.05878302 -0.027777983 0.010689783 -0.027157314
0.052265506 -0.020885464 -0.01058297 -0.0084454985 -0.009038033 0.013871979 0.010903877 -0.006887933
-0.012190266 0.04862104 0.042397607 -0.040377174 0.014231989 0.043842483 0.0066821906 -0.024006959
-0.02502551 -0.010329563 0.058177117 0.02362285 -0.03802769 -0.013477829 0.0066773086 -0.044730753
-0.014128221 0.037170235 -0.042699892 -0.010939256 -0.0062636044 -0.010554516 -0.031667914 0.011867878
0.0056416513 -0.009055764 0.027369829 0.027841743 0.026333183 0.017380418 0.018362375 0.04027509
0.015388485 -0.05109751 0.032398436 -0.015221838 0.027717168 -0.0058924477 0.0023396749 0.036621798
0.011424442 -0.023304272 -0.017927377 -0.011585826 -0.019628283 0.033742573 -0.036867805 -0.023568785
0.009896374 0.004039316 0.04925414 -0.019634835 -0.006971212 -0.019717274 -0.017414749 -0.001957565
-0.02693525 0.056256138 0.017587366 0.0067551546 -0.012922958 0.023521245 -0.023563916 0.008411626
-0.009002437 0.04169633 0.023861911 0.033853177 0.017961059 0.035269402 -0.022593588 -0.0068278597
-0.025476001 -0.023596738 0.009012125 0.049028005 -0.012981439 0.03700922 0.006770119 0.062211774
0.04725276 -0.010466046 -0.020900603 0.026279168 0.030837987 0.0053393706 0.03620474 -0.00041843802
0.0388858 -0.024654098 0.02673748 -0.0043735458 0.00079796894 0.07201346 -0.017726865 -0.021199081
-0.0102147 0.043480728 -0.018955478 0.03613081 -0.058370017 -0.010764319 -0.022171501 -0.01332251
-0.047631115 0.0019116838 -0.03665769 -0.005650222 0.023419354 -0.034819435 -0.011843356 0.011981212
0.030712415 -0.02178284 0.0036644991 -0.044845548 0.00039120577 0.0116315875 -0.0068655033 -0.024190243
0.044248145 -0.0697604 0.0095537435 0.04731619 0.039031677 -0.038954727 -0.0048034363 0.0056293947
0.03158886 0.041306958 -0.015310687 -0.009790544 0.005642468 -0.018768819 0.03160536 0.022754507
0.037386537 0.02321359 0.025287325 0.024167318 -0.027626943 -0.03773803 0.0246543 0.01873079
0.0023729552 0.011733199 -0.031221626 0.034346465 0.003361876 0.034064658 0.037763733 0.02468141
0.02886659 0.040112156 -0.010764265 -0.0091758575 0.011503164 0.02086462 0.013202511 -0.02616736
-0.00458732 -0.044523414 0.0059422683 0.014354191 0.04732296 -0.027083265 -0.031772863 0.040168826
-0.0028957692 -0.022336828 0.016518077 -0.00893883 0.018405516 0.0073853224 -0.025417445 -0.025699897

linear.bias f4 [2]
00000000: 1785 443d b2cd 16bc
0.047978487 -0.009204315
