Implementation/Baselines/CAB/Fine-Tuning/xlmr/rev_xlmr_model_adamw1.pth (torch, 7207 bytes, 2 tensors)

linear.weight f4 [2, 768]
00000000: 0f55 a1bb 8d3e 273d 4ed9 593c 3b52 08bd
00000010: 7e6a 213d 4802 ce3c 7115 c13c 1eaa 013d
00000020: eeb9 903c 54e9 12bc 9c04 bc3c ae0c bebc
00000030: c349 cebc e32c 5cbc af1b 333d 6c3d cf3c
00000040: 99a1 273c efe3 b4bc f9de f03c 9a01 aebc
00000050: ed6d 3f3d ec26 38bc 8526 f8bb 0f55 903c
00000060: 7c93 2c3d 7de5 f33b cf8e 74bd e21a a53c
00000070: 83b0 0c3d e587 0c3d 44d7 b2bb 23e6 a73c
00000080: 6c42 5a3d 8d51 7e3c 2fd5 cabc abab debc
00000090: 902b 00bc 75cd 68bd a3dc c73c 0ea8 3b3b
000000a0: ad6a 4b3d 46fb c43c 302f a5bc 51cc 573c
000000b0: f350 42bd 2e74 da3c 7cf7 bd3c 04f4 c8bc
000000c0: 4b68 92bc 28c6 d7b9 58c2 d4bc 69c1 67bd
000000d0: 51ef fe3c 5c32 293c 98e7 b6bc 8300 e63c
000000e0: 4310 8a3c e593 023d 3979 85bd a3ac 3cbc
000000f0: 81c7 46bc 4f6a 573c ec3c 813c 4b7b 4c3d
00000100: 91fa f8bc 17da 433c 1aef 233c 864f 9b3b
00000110: 43b5 8cbd 7539 c5bc 46e7 643c b112 d3bc
00000120: 599b 583d 3eff e3bc b33f 54bc 9846 4ebb
00000130: 9d01 3ebc a75e 253b 2171 d1bb 8701 66bc
00000140: e60f 9abc a788 753d 8ac4 6d3d 23d9 0cbd
00000150: 932b 283d 378c 383d c1be d33c 40e7 a6bc
00000160: 54cd cbbc 1472 5abc 1c49 973d 0894 af3c
00000170: 83c7 48bd 0882 19bd b7a0 8dbc 2a2b 2dbd
00000180: 85f3 09bd 7f57 2e3d 99df 71bd 8e37 00bc
00000190: 3dcf a5bb b558 5cbc 3f00 3abd 5c30 733c
000001a0: b2cf 613c a10d 5bbc fd78 413d 8acb d43c
000001b0: 7f2a 563d 1392 d53c 1c25 b23c c26b 4b3d
000001c0: f367 fc3b 6130 5dbd 1ca9 f53c 0faa 1abc
000001d0: fb55 f03c 0054 b3bc 7cde 3f3c 613d 793d
000001e0: b0ab 57bb 809b e6bc 32b5 a2bc cc37 25bc
000001f0: bf6f 08bd 6ab1 3a3d 295a 47bd bfdf 15bd
00000200: 2ea3 4d3a 856d 603c ab46 503d 9559 9fbc
00000210: 3cdb 1cbb 15e4 14bd f8ea 26bd 2c90 403c
00000220: b08b 9dbc 1947 8a3d d819 c43c 0f39 163c
00000230: 1855 1abd c799 083d 5fe7 95bc 294d 71bc
00000240: a961 b4bb 1ca5 103d 5def fe3c 1613 e53c
00000250: 3124 ef3c 91e7 1a3d 09fd b8bb ca20 493c
00000260: 2fa9 eabc 2367 11bd f869 d5ba 240c 803d
00000270: 54f2 8fbc 3292 113d 180e 133c 13ed 933d
00000280: 8b68 893d b952 73ba 99f4 cbbc 6fbe 093d
00000290: 53ff 113d 0f7c 9abb dd24 263d 6c93 613c
000002a0: b198 403d 1408 febc 3d65 163d 3c8f a8bb
000002b0: 4dec 7b3c 8578 b83d eb10 89bc f358 9abc
000002c0: d354 93bc e9d4 303d d6ef 59bc 9c62 5d3d
000002d0: c460 8bbd c264 02bd e94b d3bc 0992 30bc
000002e0: 9a2d 52bd 4213 d7bb 5ac2 28bd bef6 4cbc
000002f0: 31bc 823c 066c 07bd 10e6 a9bb cef9 853b
00000300: 51dc d53c 0457 12bd 777b e13b 11d5 73bd
00000310: 419c 1fbc 7543 583c 39d3 2b3b 7fef 2bbd
00000320: 28b4 183d 8b5e bfbd 07ef f3ba 90d9 333d
00000330: f8a0 8c3d da74 0cbd 81de 473c 92ce 6aba
00000340: 5bc7 f73c 641a 603d 554f 94bc 8a99 c8bb
00000350: b87b 903a b1d2 3cbc 7f84 fe3c 49a8 033d
00000360: 50f1 133d c2e2 ae3b 7d6e 643c 8359 483c
00000370: e240 2cbd 1b6f 0cbd e2f1 cb3c e531 3a3c
00000380: 704f a9ba bd77 433c 498b 23bd f934 573d
00000390: 012c 9a3b 9292 4f3d 8932 373d 8560 5c3c
000003a0: 18ec 1a3d df30 393d 8769 e5bc 5d31 bebc
000003b0: 0d25 c93a aed5 f03c 9dee 6b3c ec00 e4bc
000003c0: 778c 6bbc 27a7 91bd a571 f93b 853f 363c
000003d0: 31e0 8b3d df84 a3bc 9214 3fbd be2c 5c3d
000003e0: 58fc 95ba c913 01bd 772b d03c 5b30 cabc
000003f0: b74e 4a3c a406 dd3b bd49 f1bc cdfd 43bd
-0.00492347 0.040831137 0.013296438 -0.033281546 0.0394082 0.025147572 0.023569794 0.031656377
0.017666783 -0.008966763 0.022951417 -0.023199406 -0.025181657 -0.013438436 0.043727573 0.025297843
0.010231399 -0.022081343 0.029403197 -0.021240998 0.046735693 -0.011239748 -0.0075729513 0.017618684
0.04213284 0.0074431286 -0.059706505 0.02015442 0.034348022 0.034309287 -0.0054577906 0.02049548
0.053286 0.015522373 -0.024759857 -0.027181467 -0.007822886 -0.056836564 0.0243972 0.0028634104
0.04966228 0.024045598 -0.020164102 0.013171271 -0.04744048 0.026666727 0.023189299 -0.024530418
-0.017871996 -0.00041155634 -0.025971577 -0.056580935 0.031119974 0.010326948 -0.02232723 0.028076416
0.016853457 0.031879324 -0.06517262 -0.011515769 -0.012132526 0.013147905 0.01577612 0.04992227
-0.030392917 0.011953852 0.010005737 0.0047397045 -0.068705104 -0.02407525 0.0139711555 -0.025765749
0.052882526 -0.02783167 -0.01295464 -0.0031475183 -0.011597064 0.002523342 -0.00639166 -0.01403845
-0.01880641 0.059944775 0.058048762 -0.034386765 0.04105718 0.045055594 0.025847794 -0.02037394
-0.024878182 -0.013332862 0.073869914 0.021432891 -0.049018394 -0.037477523 -0.017288549 -0.042277493
-0.033679504 0.04256391 -0.05905113 -0.007825745 -0.005060105 -0.013448884 -0.04541039 0.014843073
0.013782429 -0.013369949 0.047234524 0.025975961 0.05228662 0.02607063 0.02174621 0.049663313
0.0077028214 -0.054001216 0.029987864 -0.009439959 0.029337874 -0.02189064 0.011710759 0.06084955
-0.003290873 -0.02815032 -0.019861791 -0.010084104 -0.033309694 0.04557935 -0.048669968 -0.036590334
0.0007844445 0.0136979865 0.050848644 -0.019451896 -0.0023934385 -0.03635033 -0.040751427 0.011753123
-0.019231647 0.06751842 0.023938105 0.009168877 -0.037678808 0.03334978 -0.018298803 -0.014727869
-0.005504806 0.03531371 0.031119997 0.027963202 0.029192062 0.037818495 -0.0056453985 0.012275884
-0.028645126 -0.03549875 -0.0016282192 0.06252316 -0.017571606 0.035539813 0.008975528 0.07222953
0.06709393 -0.0009282041 -0.024896907 0.033628877 0.035643887 -0.004714496 0.0405625 0.013768058
0.047020618 -0.031009711 0.036717642 -0.005144028 0.015376163 0.09007362 -0.0167317 -0.018841242
-0.017984783 0.043171797 -0.01330181 0.05404912 -0.06805566 -0.03183437 -0.025793033 -0.010777005
-0.05131302 -0.006563575 -0.041200973 -0.01251 0.015958877 -0.033062004 -0.0051848963 0.004088617
0.026106032 -0.035727516 0.0068811732 -0.059529368 -0.009741844 0.013199677 0.0026218428 -0.04197645
0.037281185 -0.093442045 -0.0018610664 0.043908656 0.0686664 -0.034291126 0.012199045 -0.0008957173
0.030246427 0.054712668 -0.018104235 -0.006121819 0.0011023199 -0.011524842 0.031069038 0.03214291
0.036118805 0.00533709 0.013942358 0.0122283725 -0.042054065 -0.034285646 0.024895612 0.011364435
-0.0012917351 0.011930403 -0.039927755 0.052540753 0.0047049527 0.05067689 0.04472593 0.013450746
0.037822813 0.045212623 -0.02800442 -0.023216898 0.0015346125 0.029398765 0.014400152 -0.02783247
-0.014376751 -0.0711196 0.0076124244 0.011123543 0.068298705 -0.019960819 -0.046650477 0.053753607
-0.0011443002 -0.03151301 0.02541135 -0.02468126 0.012347869 0.0067451764 -0.029454106 -0.047849465

linear.bias f4 [2]
00000000: ce6d 453d 2d41 1cbc
0.04820042 -0.0095370235
