Implementation/Baselines/CAB/Fine-Tuning/xlmr/rev_xlmr_model_adamw2.pth (torch, 7207 bytes, 2 tensors)

linear.weight f4 [2, 768]
00000000: b73d b9bb 4932 353d af45 523c f764 57bd
00000010: 3ad7 093d 0d95 173d 52ba de3c 0d64 143d
00000020: 8125 573c 0276 2cbb 8f85 e63c 2609 febc
00000030: 6d0e ffbc 9855 06bc dfa1 7f3d 74e2 f53c
00000040: 3a3c 1c3c 5875 b2bc 8c83 f73c 861e c4bc
00000050: cab1 653d dba0 d1bc ba4e 763a a062 0f3c
00000060: 404d 0b3d 7a66 eb3b 20d9 90bd f229 103d
00000070: c23f 243d 8f60 6c3d 59df 36bb b1a4 363d
00000080: bfa0 783d 0f3c ed3b ccf8 ecbc cd4c f1bc
00000090: ef12 b9bb 0289 71bd 4783 9c3c 8302 423c
000000a0: 68cb 433d 81c2 173d fed7 d7bc 6509 cb3b
000000b0: 1922 6abd 1dc3 c13c 0197 983c 2c1b dabc
000000c0: 7811 ccbc 97fe 43bb 0e6f 50bd eb14 93bd
000000d0: 914c cd3c a0b9 8d3c 9356 04bd 3165 233d
000000e0: 9c84 c53c 843a c93c ae19 9fbd 02b6 40bc
000000f0: 1414 9bbc d7e0 413a 4c09 e73c 75a5 873d
00000100: ed54 05bd a017 9d3c b303 5c3c 558e 5c3c
00000110: 35cf a1bd c9dd 99bc 6301 783c d8cb cdbc
00000120: ba8b 5b3d 3e1b 06bd 6110 8bbc 7d88 813a
00000130: 17be 90bc 4f89 00bc 0c1e 9abc e1f8 a0bc
00000140: 5c34 e6bc 3696 8a3d e9e4 913d 7486 d6bc
00000150: b5cc 7c3d 20db 363d d634 333d 58eb 93bc
00000160: c10e d6bc 80d0 81bc 1728 ae3d 7b11 b53c
00000170: 3528 6dbd db6b 6ebd a47f 1fbd ad06 29bd
00000180: a83d 52bd 4dc4 333d a314 94bd 438f b0bb
00000190: 370c 24bb 927c 70bc baa4 70bd 8ec1 6e3c
000001a0: 8b1c c03c c009 a3bc 9390 803d 3929 da3c
000001b0: 5387 973d ebe8 113d 4d28 c53c 7cc2 703d
000001c0: 8764 97ba a34a 67bd 0f42 e93c 6ba1 82bb
000001d0: 2004 fa3c 0cef 1fbd 2eac a33c 6a64 a73d
000001e0: a7e3 70bc 2962 febc 83b6 acbc 5ed0 10bc
000001f0: 2783 30bd 80f2 633d 8e6b 7abd 8220 3cbd
00000200: 1d92 35bc fb37 b13c 5184 583d 2df5 adbc
00000210: b2b1 823b 7ce3 48bd 9207 84bd 3654 d03c
00000220: 6d84 47bc 4b5d 983d ee9b 003d 9e48 0a3c
00000230: 2c02 70bd 589a 243d 7716 39bc 408d 04bd
00000240: 695c 1f3a b332 f33c 3cbb 163d 97be c23c
00000250: d0ca 1f3d c631 213d 6f72 153c 06e9 d73c
00000260: 16a2 fcbc 68aa 3dbd 968d e0bb f0e4 9a3d
00000270: 978b 9fbc d019 143d 6bc0 353c 2ea9 a43d
00000280: 74b6 ae3d b7b4 0e3c 7ab0 d0bc 18cb 2b3d
00000290: b804 2a3d a7b2 62bc 1e9d 3a3d 93a4 dd3c
000002a0: c369 543d cf91 20bd 8e51 3e3d b1f8 07bc
000002b0: 20bd d53c 41b6 d83d 33a4 64bc 46e5 97bc
000002c0: ea72 d0bc d023 343d 6ea2 a3bb e45c 8f3d
000002d0: c1cd 99bd 868c 40bd 3689 ebbc e3b9 09bc
000002e0: c12f 5fbd 45a5 82bc 5758 40bd 8776 6fbc
000002f0: a675 0e3c fc25 f5bc 8deb b538 0a92 31bb
00000300: 0603 b33c 6d46 42bd 60f0 043c a5e8 91bd
00000310: 5193 a3bc c222 783c 3647 203c 6e11 6abd
00000320: 6729 fd3c 2694 e7bd 3c91 7cbc 9934 293d
00000330: a5fc c23d 8119 f7bc 1831 e03c 2e2a d3bb
00000340: ebeb e73c 42ba 833d b2d7 bdbc f330 57bb
00000350: 79ed b4bb 90e5 90bb 279c e63c 1622 203d
00000360: d0b3 033d 4366 38bc 20f6 943b 28e7 093b
00000370: 814c 5abd 3022 07bd 64fd ca3c 4b2e bd3b
00000380: 4b59 5ebb 56e9 643c dd4a 3dbd 9bf5 8c3d
00000390: 10ad b73b 166b 883d 4dde 443d b5af 7a3b
000003a0: 5f53 3b3d 978d 3f3d 7191 2abd 6971 04bd
000003b0: b816 febb 69c7 1f3d 59ce 783c d5d5 ecbc
000003c0: d091 abbc 0f33 c1bd b9cc 153c 1c3b ce3b
000003d0: 6535 ac3d f219 6bbc 57f1 72bd 1151 873d
000003e0: 5d3e 5bba 269d 1bbd 8698 003d 3593 17bd
000003f0: bda7 a73b cabe 313b bc5c 18bd e467 90bd
-0.005653109 0.04423741 0.012833997 -0.052586522 0.03365252 0.03700738 0.027188454 0.03622823
0.0131315 -0.0026315455 0.028139858 -0.031010222 -0.031134808 -0.008199118 0.06241023 0.030015208
0.0095358435 -0.02178447 0.030214094 -0.023940336 0.056077756 -0.025589397 0.00093958864 0.008751541
0.03400922 0.007183847 -0.07072663 0.035196252 0.040099867 0.057709273 -0.0027904122 0.044590656
0.060700174 0.0072398256 -0.02892723 -0.029455567 -0.005648009 -0.05896855 0.019105567 0.011841419
0.047801405 0.037050728 -0.02634811 0.0061961883 -0.057161424 0.023652608 0.018626692 -0.026624285
-0.024910673 -0.0029906386 -0.05088716 -0.07181724 0.025060924 0.017300427 -0.032309126 0.039891426
0.024111085 0.024564035 -0.0776857 -0.011762144 -0.018930472 0.00073958695 0.028202675 0.06623355
-0.032551695 0.019176304 0.013428616 0.013461669 -0.0790085 -0.018782513 0.015137049 -0.025121614
0.05360005 -0.032740824 -0.016975584 0.0009882596 -0.017668767 -0.007845237 -0.018813156 -0.019649925
-0.028101139 0.06766932 0.07123739 -0.02618716 0.06171866 0.044642568 0.04375156 -0.018056557
-0.026130082 -0.01584649 0.0850374 0.022103062 -0.057899673 -0.058208328 -0.038940087 -0.041266132
-0.05132833 0.04388838 -0.07230499 -0.005388172 -0.0025031695 -0.014678137 -0.058750845 0.014572514
0.02345111 -0.01990211 0.06277575 0.026630985 0.07398858 0.03562252 0.024067068 0.058779225
-0.0011550345 -0.056467663 0.028473882 -0.0039865277 0.030519545 -0.039046332 0.019979563 0.08173449
-0.014702714 -0.031052666 -0.021083122 -0.008838741 -0.043093827 0.055651188 -0.06113773 -0.04592944
-0.011082199 0.021633139 0.05286056 -0.021235073 0.003988468 -0.04904507 -0.064467564 0.02543078
-0.012177569 0.07439669 0.031398706 0.008440165 -0.05859582 0.040186256 -0.01129686 -0.03236127
0.0006079139 0.029687261 0.036799654 0.023772521 0.039011776 0.03935411 0.009121521 0.026356231
-0.030839007 -0.04630509 -0.006852816 0.075631976 -0.019475741 0.03615743 0.011093239 0.08040081
0.08530894 0.008710078 -0.025474776 0.041941732 0.041508406 -0.013836539 0.045559995 0.027056014
0.051858675 -0.039201554 0.046464495 -0.008299039 0.026091158 0.10581637 -0.013955164 -0.018541943
-0.02544542 0.043979466 -0.0049937284 0.07000139 -0.075099476 -0.047009014 -0.02875195 -0.008406135
-0.0544889 -0.015947947 -0.046959247 -0.014615661 0.008695042 -0.029925339 8.674627e-05 -0.0027095103
0.021852028 -0.047430445 0.0081139505 -0.071244515 -0.019967707 0.015145006 0.009782603 -0.05714553
0.030903531 -0.11307554 -0.015415486 0.041309927 0.09520844 -0.030163528 0.02736716 -0.006444237
0.028310737 0.0643201 -0.02317414 -0.0032835572 -0.005521473 -0.004421897 0.028150631 0.039095007
0.032153904 -0.01125485 0.004545942 0.002104232 -0.053295616 -0.032991588 0.02477903 0.005773341
-0.0033927734 0.013971647 -0.046213973 0.06882783 0.0056053475 0.0666105 0.048063565 0.0038251702
0.045733806 0.04676589 -0.04164261 -0.03233472 -0.007754173 0.03900853 0.015185916 -0.028910557
-0.020943552 -0.09433567 0.009143048 0.0062936675 0.08408622 -0.014349448 -0.05931219 0.06607259
-0.000836348 -0.037991665 0.031395458 -0.037005622 0.0051164315 0.0027121776 -0.037197813 -0.070510656

linear.bias f4 [2]
00000000: 4843 453d 9d66 1dbc
0.048159868 -0.009606984
